…
cee/meidani/Vincent/aircraft_industry/processed_data3/', model_name='Transolver_seg_v5', json_filename='/u/wzhong/Aircraft/airplane_dataset.json', fold_id=0, gpu=0, val_iter=10, cfd_config_dir='cfd/cfd_params.yaml', cfd_mesh=False, r=0.2, weight=0.5, lr=0.001, batch_size=1, nb_epochs=200, preprocessed=1, finetune=0, pos_norm=1, out_norm=1, dataset='airplane', eval=False, local_rank=0, out_dim=4, world_size=None, master_addr=None, master_port=None)
2026-01-01 23:38:05,446 - Number of parameters: 2596906
2026-01-01 23:38:05,446 - Model(
  (preprocess): MLP(
    (linear_pre): Sequential(
      (0): Linear(in_features=7, out_features=512, bias=True)
      (1): GELU(approximate='none')
    )
    (linear_post): Linear(in_features=512, out_features=256, bias=True)
    (linears): ModuleList()
  )
  (embedding): Linear(in_features=3, out_features=256, bias=True)
  (blocks): ModuleList(
    (0-2): 3 x Transolver_plus_block(
      (ln_1): LayerNorm((256,), eps=1e-05, elementwise_affine=True)
      (Attn): Physics_Attention_seg(
        (softmax): Softmax(dim=-1)
        (dropout): Dropout(p=0.1, inplace=False)
        (proj_temperature): Sequential(
          (0): Linear(in_features=32, out_features=32, bias=True)
          (1): GELU(approximate='none')
          (2): Linear(in_features=32, out_features=1, bias=True)
          (3): GELU(approximate='none')
        )
        (in_project_x): Linear(in_features=256, out_features=256, bias=True)
        (token_linear): Linear(in_features=32, out_features=32, bias=False)
        (self_to_q): Linear(in_features=32, out_features=32, bias=False)
        (self_to_k): Linear(in_features=32, out_features=32, bias=False)
        (self_to_v): Linear(in_features=32, out_features=32, bias=False)
        (to_out): Sequential(
          (0): Linear(in_features=256, out_features=256, bias=True)
          (1): Dropout(p=0.1, inplace=False)
        )
      )
      (ln_2): LayerNorm((256,), eps=1e-05, elementwise_affine=True)
      (mlp): MLP(
        (linear_pre): Sequential(
          (0): Linear(in_features=256, out_features=512, bias=True)
          (1): GELU(approximate='none')
        )
        (linear_post): Linear(in_features=512, out_features=256, bias=True)
        (linears): ModuleList()
      )
    )
    (3): Transolver_plus_block(
      (ln_1): LayerNorm((256,), eps=1e-05, elementwise_affine=True)
      (Attn): Physics_Attention_seg(
        (softmax): Softmax(dim=-1)
        (dropout): Dropout(p=0.1, inplace=False)
        (proj_temperature): Sequential(
          (0): Linear(in_features=32, out_features=32, bias=True)
          (1): GELU(approximate='none')
          (2): Linear(in_features=32, out_features=1, bias=True)
          (3): GELU(approximate='none')
        )
        (in_project_x): Linear(in_features=256, out_features=256, bias=True)
        (token_linear): Linear(in_features=32, out_features=32, bias=False)
        (self_to_q): Linear(in_features=32, out_features=32, bias=False)
        (self_to_k): Linear(in_features=32, out_features=32, bias=False)
        (self_to_v): Linear(in_features=32, out_features=32, bias=False)
        (to_out): Sequential(
          (0): Linear(in_features=256, out_features=256, bias=True)
          (1): Dropout(p=0.1, inplace=False)
        )
      )
      (ln_2): LayerNorm((256,), eps=1e-05, elementwise_affine=True)
      (mlp): MLP(
        (linear_pre): Sequential(
          (0): Linear(in_features=256, out_features=512, bias=True)
          (1): GELU(approximate='none')
        )
        (linear_post): Linear(in_features=512, out_features=256, bias=True)
        (linears): ModuleList()
      )
      (ln_3): LayerNorm((256,), eps=1e-05, elementwise_affine=True)
      (mlp2): Linear(in_features=256, out_features=256, bias=True)
    )
  )
  (dcon): DCON(
    (layers): ModuleList(
      (0-3): 4 x MLP(
        (linear_pre): Sequential(
          (0): Linear(in_features=256, out_features=256, bias=True)
          (1): GELU(approximate='none')
        )
        (linear_post): Linear(in_features=256, out_features=256, bias=True)
        (linears): ModuleList(
          (0): Sequential(
            (0): Linear(in_features=256, out_features=256, bias=True)
            (1): GELU(approximate='none')
          )
        )
      )
    )
    (last_layer): Linear(in_features=256, out_features=6, bias=True)
  )
)
2026-01-01 23:39:16,477 - Epoch 0, train_loss: 4.949633622982285, val_loss_mse: 4.925866237282753, val_loss_l2re: 0.7865658700466156
2026-01-01 23:40:17,083 - Epoch 1, train_loss: 4.868591725826263
2026-01-01 23:41:20,988 - Epoch 2, train_loss: 4.608016594702547
2026-01-01 23:42:24,438 - Epoch 3, train_loss: 3.961057156595317
2026-01-01 23:43:31,221 - Epoch 4, train_loss: 2.8546586334705353
…
